2024-12-27 12:03:10 INFO     Starting training...
2024-12-27 12:03:10 INFO     {'device': 'cuda', 'input_dim': 5000, 'latent_dim': 15, 'layers': [200, 100, 50, 15], 'learning_rate': 0.001, 'epochs': 1000, 'batch_size': 128}
2024-12-27 12:03:10 INFO     ETM(
  (encoder): ETMEncoder(
    (fc): Stacklayers(
      (layers): ModuleList(
        (0): Linear(in_features=5000, out_features=200, bias=True)
        (1): ReLU()
        (2): Linear(in_features=200, out_features=100, bias=True)
        (3): ReLU()
        (4): Linear(in_features=100, out_features=50, bias=True)
        (5): ReLU()
        (6): Linear(in_features=50, out_features=15, bias=True)
        (7): ReLU()
      )
    )
    (z_mean): Linear(in_features=15, out_features=15, bias=True)
    (z_lnvar): Linear(in_features=15, out_features=15, bias=True)
  )
  (decoder): ETMDecoder(
    (lsmax): LogSoftmax(dim=-1)
  )
)
2024-12-27 12:03:10 INFO     Starting training....
2024-12-27 12:03:12 INFO     ====> Epoch: 0 Average loss: 3260.4932
2024-12-27 12:03:21 INFO     ====> Epoch: 10 Average loss: 2729.3111
2024-12-27 12:03:39 INFO     Starting training...
2024-12-27 12:03:39 INFO     {'device': 'cuda', 'input_dim': 5000, 'latent_dim': 15, 'layers': [200, 100, 50, 15], 'learning_rate': 0.001, 'epochs': 10, 'batch_size': 128}
2024-12-27 12:03:39 INFO     ETM(
  (encoder): ETMEncoder(
    (fc): Stacklayers(
      (layers): ModuleList(
        (0): Linear(in_features=5000, out_features=200, bias=True)
        (1): ReLU()
        (2): Linear(in_features=200, out_features=100, bias=True)
        (3): ReLU()
        (4): Linear(in_features=100, out_features=50, bias=True)
        (5): ReLU()
        (6): Linear(in_features=50, out_features=15, bias=True)
        (7): ReLU()
      )
    )
    (z_mean): Linear(in_features=15, out_features=15, bias=True)
    (z_lnvar): Linear(in_features=15, out_features=15, bias=True)
  )
  (decoder): ETMDecoder(
    (lsmax): LogSoftmax(dim=-1)
  )
)
2024-12-27 12:03:39 INFO     Starting training....
2024-12-27 12:03:41 INFO     ====> Epoch: 0 Average loss: 3260.4932
2024-12-27 12:03:49 INFO     Completed training...model saved in results/nn_flowrida.model
2024-12-27 12:03:49 INFO     Starting eval...
2024-12-27 12:03:49 INFO     {'device': 'cuda', 'input_dim': 5000, 'latent_dim': 15, 'layers': [200, 100, 50, 15], 'learning_rate': 0.001, 'epochs': 10, 'batch_size': 128}
2024-12-27 12:03:49 INFO     ETM(
  (encoder): ETMEncoder(
    (fc): Stacklayers(
      (layers): ModuleList(
        (0): Linear(in_features=5000, out_features=200, bias=True)
        (1): ReLU()
        (2): Linear(in_features=200, out_features=100, bias=True)
        (3): ReLU()
        (4): Linear(in_features=100, out_features=50, bias=True)
        (5): ReLU()
        (6): Linear(in_features=50, out_features=15, bias=True)
        (7): ReLU()
      )
    )
    (z_mean): Linear(in_features=15, out_features=15, bias=True)
    (z_lnvar): Linear(in_features=15, out_features=15, bias=True)
  )
  (decoder): ETMDecoder(
    (lsmax): LogSoftmax(dim=-1)
  )
)
2024-12-27 12:05:18 INFO     Starting training...
2024-12-27 12:05:18 INFO     {'device': 'cuda', 'input_dim': 5000, 'latent_dim': 15, 'layers': [200, 100, 50, 15], 'learning_rate': 0.001, 'epochs': 1000, 'batch_size': 128}
2024-12-27 12:05:18 INFO     ETM(
  (encoder): ETMEncoder(
    (fc): Stacklayers(
      (layers): ModuleList(
        (0): Linear(in_features=5000, out_features=200, bias=True)
        (1): ReLU()
        (2): Linear(in_features=200, out_features=100, bias=True)
        (3): ReLU()
        (4): Linear(in_features=100, out_features=50, bias=True)
        (5): ReLU()
        (6): Linear(in_features=50, out_features=15, bias=True)
        (7): ReLU()
      )
    )
    (z_mean): Linear(in_features=15, out_features=15, bias=True)
    (z_lnvar): Linear(in_features=15, out_features=15, bias=True)
  )
  (decoder): ETMDecoder(
    (lsmax): LogSoftmax(dim=-1)
  )
)
2024-12-27 12:05:18 INFO     Starting training....
2024-12-27 12:05:20 INFO     ====> Epoch: 0 Average loss: 3260.4932
2024-12-27 12:05:29 INFO     ====> Epoch: 10 Average loss: 2729.3111
2024-12-27 12:05:38 INFO     ====> Epoch: 20 Average loss: 2552.0354
2024-12-27 12:05:47 INFO     ====> Epoch: 30 Average loss: 2504.4555
…
2024-12-27 12:20:02 INFO     ====> Epoch: 970 Average loss: 2419.7038
2024-12-27 12:20:12 INFO     ====> Epoch: 980 Average loss: 2419.6124
2024-12-27 12:20:21 INFO     ====> Epoch: 990 Average loss: 2421.1956
2024-12-27 12:20:29 INFO     Completed training...model saved in results/nn_flowrida.model
2024-12-27 12:20:29 INFO     Starting eval...
2024-12-27 12:20:29 INFO     {'device': 'cuda', 'input_dim': 5000, 'latent_dim': 15, 'layers': [200, 100, 50, 15], 'learning_rate': 0.001, 'epochs': 1000, 'batch_size': 128}
2024-12-27 12:20:29 INFO     ETM(
  (encoder): ETMEncoder(
    (fc): Stacklayers(
      (layers): ModuleList(
        (0): Linear(in_features=5000, out_features=200, bias=True)
        (1): ReLU()
        (2): Linear(in_features=200, out_features=100, bias=True)
        (3): ReLU()
        (4): Linear(in_features=100, out_features=50, bias=True)
        (5): ReLU()
        (6): Linear(in_features=50, out_features=15, bias=True)
        (7): ReLU()
      )
    )
    (z_mean): Linear(in_features=15, out_features=15, bias=True)
    (z_lnvar): Linear(in_features=15, out_features=15, bias=True)
  )
  (decoder): ETMDecoder(
    (lsmax): LogSoftmax(dim=-1)
  )
)
